models/GCN/model.pkl (torch, 108795 bytes, 13 tensors)

gcn.gc1.weight f4 [30, 256]
0	0x3c3818ab	0.01123635
1	0x3cfa0607	0.030520452
2	0x3cc237c2	0.023708228
3	0xbd7b4baf	-0.061351474
4	0xbd273968	-0.04082623
5	0x3cc13613	0.023585355
6	0xbcb706d8	-0.02234213
7	0x3d2942ec	0.041323587
8	0xbc7127f3	-0.014718997
9	0x3d2ecbf5	0.042674977
10	0xbcb0d013	-0.021583593
11	0xbc14c855	-0.009080966
12	0xbc306c16	-0.010767957
13	0x3d2572ab	0.04039256
14	0x3c376062	0.011192413
15	0xbccfe0dc	-0.025375776
16	0x3b8fd5e9	0.0043895137
17	0xbcafb74c	-0.021449707
18	0x3b749524	0.003732034
19	0xbd0b1fa0	-0.033965707
20	0x3cc245c7	0.023714913
21	0x3d1e6768	0.038672835
22	0x3baafe28	0.005218286
23	0xbd089e8b	-0.033354323
24	0xbc4729c3	-0.012155953
25	0x3cfd6c59	0.030935453
26	0x3af8c97a	0.0018980943
27	0x3d40307e	0.046921246
28	0xbcb947b6	-0.022617202
29	0xbcee1a25	-0.029065201
30	0xbbc7b231	-0.00609424
31	0xbbda5a1b	-0.0066635734
32	0xbd18f738	-0.03734514
33	0xbb638ce2	-0.0034721424
34	0xbd1484b2	-0.03625936
35	0x3ba35467	0.004984427
36	0xbd0285bd	-0.031865824
37	0x3d2d3423	0.04228605
38	0xbd79943c	-0.060932383
39	0xbd19bad5	-0.037531693
40	0x3d1042bf	0.035219904
41	0xbd058e0c	-0.03260617
42	0x3cb15739	0.021648036
43	0xbc2b8c53	-0.010470468
44	0xbd9b69da	-0.07588549
45	0x3cded515	0.027201215
46	0x3d4c47f1	0.049873296
47	0xbd39eb88	-0.045390636
48	0x3d3ccc79	0.046093438
49	0xbd10866b	-0.03528444
50	0xbc2749bb	-0.01021045
51	0x3cc4b140	0.0240103
52	0x3ae6321c	0.0017562541
53	0x3a974649	0.0011541332
54	0xbd1e5d0a	-0.038662948
55	0x3d0bba14	0.034113005
56	0xbd13b1bd	-0.036058176
57	0xbcbe45a5	-0.023226568
58	0xbd97c637	-0.07410853
59	0x3c9ff2f9	0.019525038
60	0x3cb1645f	0.021654306
61	0xbc5ec35a	-0.01359638
62	0x3cb65cfc	0.022261135
63	0xbd16048a	-0.036625423
64	0x3c8a8c15	0.0169125
65	0xbc52c5fd	-0.012864587
66	0xbc4f8727	-0.0126665
67	0xbcc5666c	-0.02409669
68	0xbd9aa32d	-0.075506546
69	0xbd26b189	-0.040696654
70	0x3c3a03e5	0.011353468
71	0x3cfd8da0	0.030951321
72	0xbbedfe96	-0.007263015
73	0x3ca931b7	0.020653589
74	0xbd5792e3	-0.052630316
75	0x3c03ff10	0.008056417
76	0xbd2b5ebd	-0.041838396
77	0xbcccfd22	-0.025023047
78	0x3d929a0a	0.07158287
79	0x3d247cb3	0.040157985
80	0xbc25e061	-0.010124297
81	0x3d5a2222	0.053255208
82	0x3c0d9ba4	0.008643065
83	0xbce86972	-0.028370593
84	0xbaabced1	-0.0013107901
85	0x3d1ff486	0.039051555
86	0x3d86ad16	0.06575982
87	0xbd633d4a	-0.05547837
88	0xbcf8f795	-0.030391494
89	0x3c1a618b	0.00942267
90	0xbc390795	-0.011293312
91	0xbc26fd15	-0.010192175
92	0xbc80fe31	-0.015746208
93	0x3c05ccef	0.008166536
94	0x3bfd3730	0.007727526
95	0xbc2e3530	-0.010632798
96	0xbc94b10c	-0.018150829
97	0x3c5eb756	0.013593515
98	0x3d5f8d4f	0.05457812
99	0x3b95b4ce	0.0045686727
100	0x3d7e5eeb	0.06210224
101	0xba563420	-0.00081712194
102	0x3c83c38f	0.01608446
103	0xbcda7793	-0.026668346
104	0xbc0000a2	-0.007812651
105	0xbcf0e334	-0.029405214
106	0x3cdd1977	0.026989682
107	0xbd2b4924	-0.0418178
108	0xbd795069	-0.0608677
109	0xbd3fa6ba	-0.046789862
110	0xbceab633	-0.028651332
111	0xb9bceeb4	-0.00036036002
112	0xbc887385	-0.016656647
113	0xba38a021	-0.0007042904
114	0x3ca95c4e	0.020673897
115	0xba8b37ea	-0.0010621522
116	0x3c8c0807	0.017093671
117	0xbd4fa2a5	-0.05069222
118	0x3d0c683b	0.03427909
119	0xbc9baaf0	-0.019002408
120	0xbcd22361	-0.025651636
121	0xbd7261a9	-0.059175167
122	0x3c55d926	0.0130522605
123	0xb9bf9876	-0.0003654395
124	0xbcb8ed28	-0.022574022
125	0xbca84e22	-0.02054507
126	0x3a8c251b	0.0010692211
127	0xbc0040ae	-0.007827921
128	0x3d694c35	0.056957442
129	0xbc7fe536	-0.015618613
130	0xbc9326db	-0.017962864
131	0x3d727b45	0.05919959
132	0x3c00d7b9	0.007863932
133	0x3d7052d5	0.058672745
134	0x3d5976a5	0.053091664
135	0x3cdf50bc	0.027260177
136	0xbca12ad3	-0.01967374
137	0xbbb98acc	-0.005662298
138	0x3c977e52	0.018492851
139	0xbcc653ef	-0.024209945
140	0xbd2c7779	-0.042106126
141	0x3c9857aa	0.018596489
142	0xbcda072f	-0.026614754
143	0x3c54c76f	0.012987002
144	0x3c8f1e9b	0.017470649
145	0xbd34310b	-0.043992084
146	0x3c93456a	0.017977435
147	0xbc59c91f	-0.01329258
148	0xbd3a47c6	-0.045478605
149	0x3d6e3655	0.058157284
150	0x3cf23f80	0.029571295
151	0x3d15d4a9	0.03657976
152	0x3c7e6dde	0.015529124
153	0x3bd98b4e	0.006638921
154	0xba4eff02	-0.00078962755
155	0x3d0d4048	0.03448513
156	0x3d384068	0.044983298
157	0xbc8fc79f	-0.017551241
158	0x3ca08656	0.019595306
159	0xbcac0fb9	-0.02100359
160	0xbcde4802	-0.027133945
161	0xbc5260e5	-0.012840484
162	0x3c59c59e	0.0132917445
163	0xbc3a9473	-0.011387932
164	0x3d282066	0.041046523
165	0xbd2bcb4b	-0.041941922
166	0x3d083c7d	0.03326081
167	0xbd7c6f60	-0.061629653
168	0x3c3516c9	0.011052796
169	0xbca4dce0	-0.020124853
170	0xbcb27366	-0.021783542
171	0xbcdd5b0d	-0.027020955
172	0xbcec5471	-0.028848859
173	0x3c870aed	0.016484702
174	0xbd60f50a	-0.054921187
175	0xbd39e5f2	-0.04538531
176	0x3c7f8fba	0.015598232
177	0x3d31dff8	0.043426484
178	0xbd966cb7	-0.073449545
179	0xbd8c77a0	-0.06858754
180	0x3ce2d47c	0.027689211
181	0x3d6748f5	0.05646606
182	0xbd1b73b9	-0.03795216
183	0xbcc3ee4f	-0.023917345
184	0x3d17d1dd	0.037065376
185	0x3d05418c	0.032533213
186	0xbd9501cb	-0.072757326
187	0xbd7f260e	-0.06229215
188	0xbaaa474e	-0.0012991221
189	0xbc2196e4	-0.009862635
190	0x3bd1e141	0.006405026
191	0xbd26a9b7	-0.040689196
192	0x3c8641ba	0.016388763
193	0x3d00bc68	0.03142968
194	0xbc6c22e7	-0.014412618
195	0x3c6ad058	0.0143319
196	0xbd419f23	-0.047270905
197	0x3c28f6ac	0.010312717
198	0x3da2e56e	0.079539165
199	0xbd869c8c	-0.06572828
200	0x3ba6428a	0.00507385
201	0xbd32575c	-0.043540344
202	0xbc94c719	-0.018161343
203	0x3cd85798	0.026408955
204	0x3c8a117b	0.016854038
205	0x3c1504d2	0.0090953875
206	0x3cd804c5	0.026369462
207	0xb9cf8c1a	-0.000395865
208	0x3a79468c	0.00095091085
209	0x3d330500	0.04370594
210	0x3ca2e37a	0.01988386
211	0xbb602f09	-0.0034207723
212	0x3d1e0d65	0.038586993
213	0xbcde5e07	-0.027144445
214	0x3b0ba449	0.0021307638
215	0xbd89181b	-0.06694051
216	0xbc5cb8a2	-0.013471754
217	0x3d1344e2	0.035954364
218	0xbcdd57c3	-0.027019387
219	0x3d57d675	0.052694757
220	0xbc375e14	-0.011191864
221	0x3ca67ed2	0.020324145
222	0xbd3a60e2	-0.04550255
223	0xbbbb27b7	-0.0057115215
224	0xbd20d635	-0.039266784
225	0x3c816313	0.015794313
226	0x3c87b472	0.016565535
227	0x3cabdde9	0.020979838
228	0xbc0915a3	-0.008366975
229	0xbd1b313c	-0.03788875
230	0x3bf3f9cc	0.0074455496
231	0xbc46192b	-0.012090961
232	0xbd0a3c9f	-0.03374922
233	0xbbb8189b	-0.0056181676
234	0x3d23a669	0.039953623
235	0xbd469a0b	-0.04848675
236	0x3d2714fc	0.040791497
237	0x3d24404f	0.040100392
238	0x3c3f08b6	0.011659792
239	0xbd4e65b1	-0.05038995
240	0xbd8d4caa	-0.06899388
241	0x3c56b3eb	0.013104419
242	0x3d0bb13b	0.034104567
243	0xbba25b91	-0.004954763
244	0xbd6d5506	-0.057942413
245	0xbb8dabea	-0.0043234723
246	0x3d6c39e1	0.057672385
247	0xbc867645	-0.016413817
248	0xbcb5b189	-0.022179382
249	0xbd3bc908	-0.045846015
250	0x3d632cb8	0.05546257
251	0x3d2ff6b0	0.04295987
252	0x3d7ac1c6	0.061219953
253	0x3d32471a	0.04352484
254	0xbd1696fb	-0.03676508
255	0xbd4ab61d	-0.049490083

gcn.gc1.bias f4 [256]
0	0xbcd8cc24	-0.02646453
1	0xbc8a6209	-0.01689245
2	0xbd147be1	-0.036250953
3	0x3d11370a	0.03545288
4	0xbcefcef6	-0.029273491
5	0xbca5f1d8	-0.020256922
6	0xbcfbfc7a	-0.030760039
7	0x3cd90827	0.026493145
8	0xbc7ccf54	-0.01543029
9	0xbc083658	-0.008313738
10	0x3d308091	0.04309136
11	0x3b24a322	0.0025121649
12	0xbcaa4eaa	-0.020789463
13	0x3c0e8959	0.008699738
14	0x3c72c5d2	0.014817672
15	0x3d081619	0.0332242
16	0xbd11ee9f	-0.035627957
17	0xbc60d3e3	-0.013722393
18	0x3d281c3a	0.041042544
19	0xbd06840d	-0.032840777
20	0x3c03e82a	0.008050958
21	0xbc3592bb	-0.011082347
22	0xbb6f0830	-0.0036473386
23	0x3ba005e2	0.004883514
24	0x3d28e9a3	0.04123844
25	0xbcd1cf42	-0.025611524
26	0xbd2eb41f	-0.042652246
27	0x3c8442a4	0.016145058
28	0xbc7f149e	-0.01556888
29	0x3cc585cb	0.024111649
30	0xbc8b7282	-0.017022375
31	0x3b24fc94	0.0025174962
32	0xbd08a83c	-0.033363566
33	0xbcc7eefc	-0.024405949
34	0xbd035600	-0.032064438
35	0x3d2f4f8c	0.04280047
36	0xbd11cf19	-0.035597894
37	0x3c879cbe	0.016554233
38	0x3d3bb361	0.045825366
39	0x3ce9534f	0.028482107
40	0x3d0ee7a7	0.03488889
41	0x3cebc612	0.02878097
42	0x3ca58b9f	0.020208178
43	0x3b9dbcf1	0.0048137833
44	0xbcfe7b18	-0.031064555
45	0xbd0336ca	-0.032034673
46	0xbcb2b945	-0.021816859
47	0x3d64060d	0.055669833
48	0x3b3b24c1	0.0028555843
49	0x3d069a84	0.0328622
50	0xbc85042e	-0.016237345
51	0xbd1cbd5b	-0.03826652
52	0x3c7beafc	0.015375849
53	0xbd08fd26	-0.033444546
54	0x3caf5de0	0.021407068
55	0xbb4d19df	-0.0031295938
56	0x3d38ea47	0.0451453
57	0xbb8eaba0	-0.0043539554
58	0x3b27ac38	0.0025584828
59	0xbcdc6961	-0.026905717
60	0xbd1a3180	-0.037644863
61	0xbcef51db	-0.029213836
62	0xbc897bcf	-0.01678267
63	0xbc78e98f	-0.015192403
64	0x3bf85d73	0.0075794994
65	0x3af98758	0.0019037528
66	0xba95ad57	-0.0011419457
67	0xbd164076	-0.03668257
68	0x3d214fe1	0.03938282
69	0xbc800c1f	-0.01563078
70	0x3d3003b8	0.042972296
71	0x3cc769aa	0.024342377
72	0xbbcd40ff	-0.0062638517
73	0x3d0b48ec	0.03400509
74	0x3bc268ca	0.005932902
75	0x3cf5eab2	0.030019138
76	0x3b84a953	0.0040485053
77	0xbb0ac0c5	-0.0021172029
78	0xbbd0c4ab	-0.006371101
79	0x3d269cd6	0.040676914
80	0xbc7cc2b1	-0.015427277
81	0xbc4cce91	-0.012500421
82	0xbd0f636e	-0.035006933
83	0xbb4a6fbf	-0.003088936
84	0xbb87d93d	-0.00414577
85	0x3be71e04	0.0070531387
86	0x3cb393cc	0.021921061
87	0x3d15cb0d	0.036570597
88	0xbcad5818	-0.02116017
89	0xbd48b4eb	-0.04900066
90	0xbc9b9de5	-0.018996188
91	0x3d5c275c	0.053748474
92	0x3c8cb8a5	0.01717789
93	0x3cbd051d	0.023073727
94	0xbc80de22	-0.015730921
95	0xbcbc9650	-0.023020893
96	0x3bd15831	0.006388687
97	0xbba9806a	-0.005172779
98	0xbc89254a	-0.016741414
99	0x3cd9f98f	0.026608257
100	0x3d070f2f	0.032973465
101	0x3cba9470	0.022775859
102	0x3c9d1020	0.019172728
103	0xbce1de76	-0.027571898
104	0x3c4100cb	0.011779974
105	0x3bbdb37d	0.005789219
106	0xbd42d276	-0.047563992
107	0xbd58af93	-0.052901816
108	0xbc39d413	-0.011342066
109	0xbcdf8485	-0.02728487
110	0xbc7af8b0	-0.015318081
111	0xbc6ce4bf	-0.014458834
112	0xbb454990	-0.003010366
113	0x3c7e5824	0.015523944
114	0xbc74544f	-0.014912679
115	0x3c64e60c	0.013970863
116	0xbd02d2a8	-0.03193918
117	0x3d393baf	0.045222934
118	0xbd223fb1	-0.039611522
119	0xbb741091	-0.003724132
120	0x3cb2a799	0.021808432
121	0xbd12447f	-0.035709854
122	0xbc143f84	-0.009048346
123	0x3c60d79e	0.013723282
124	0x3d09cebc	0.033644423
125	0x3cd1f536	0.025629621
126	0xbc97cbad	-0.018529737
127	0xbd47fc07	-0.048824336
128	0xbcdd568b	-0.027018806
129	0x3ce2bf9f	0.027679263
130	0x3b9db636	0.004812981
131	0x3b315359	0.0027057736
132	0x3b19105f	0.0023355705
133	0xbd036f06	-0.032088302
134	0x3b0e5158	0.0021715965
135	0xbd01b757	-0.031668987
136	0xbc58421a	-0.013199354
137	0xbd242183	-0.04007102
138	0xbc8e98e2	-0.017406885
139	0xbd54baf9	-0.051936124
140	0xbd319314	-0.043353155
141	0xbc8567af	-0.016284792
142	0xbd5951d4	-0.053056553
143	0xbcc48f15	-0.023994008
144	0x3d3cb9e6	0.046075724
145	0x3ab54649	0.0013830151
146	0x3d197772	0.037467428
147	0x3c05292b	0.008127491
148	0x3d3e9687	0.046530273
149	0xbcc33324	-0.023828097
150	0x3ae4b64a	0.0017449346
151	0xbccb4002	-0.024810795
152	0xbb20add7	-0.002451768
153	0xbc2f32b8	-0.010693245
154	0x3cceb20b	0.025231382
155	0xbc1768d7	-0.009241304
156	0xbc800075	-0.015625218
157	0xbb811190	-0.003938861
158	0x3c82c19c	0.01596146
159	0x3d432057	0.047638264
160	0xbd05c9cd	-0.032663155
161	0xbad24461	-0.0016042107
162	0x3b1ca7c7	0.0023903714
163	0xbc29aa97	-0.010355613
164	0xbbfa10d3	-0.0076314
165	0xbcbb3a30	-0.022854894
166	0xbc662354	-0.014046509
167	0xbc45787e	-0.012052653
168	0x3b5f2d55	0.003405412
169	0x3d8174c3	0.06321099
170	0xbcbb4ba9	-0.022863226
171	0xbc3f5ac3	-0.011679354
172	0x3cbc6325	0.022996495
173	0xbc2626e7	-0.010141111
174	0x3cf951cf	0.030434517
175	0xba48e74e	-0.00076638616
176	0x3be49677	0.0069759446
177	0xbabd685b	-0.0014450656
178	0x3c25e1db	0.010124649
179	0xbcec00f1	-0.028809043
180	0xbb015038	-0.0019731652
181	0xbd123a63	-0.035700213
182	0x3d41b03e	0.04728722
183	0x3d218d77	0.039441552
184	0x3ccd09b9	0.02502905
185	0x3accb2de	0.0015617271
186	0x3c97c23b	0.018525233
187	0x3c373cc1	0.011183918
188	0x3c9532ef	0.018212764
189	0xbca7a518	-0.020464465
190	0xbd5c9d6e	-0.053861074
191	0xbb14e902	-0.0022721891
192	0xbd0c8d69	-0.034314547
193	0xbc013483	-0.007886055
194	0xbd2788e6	-0.04090204
195	0x3cc02b61	0.023458185
196	0x3d3b04de	0.04565894
197	0xbbe8ea35	-0.007107998
198	0xbd507a2d	-0.050897766
199	0xbc9e3b14	-0.01931528
200	0xbcf94e16	-0.030432742
201	0xbcccbcab	-0.024992308
202	0xbcaecceb	-0.021337947
203	0xbc370fb6	-0.011173179
204	0xbcf9190d	-0.030407453
205	0xbd2082c3	-0.039187204
206	0x3b284ba0	0.0025679842
207	0x3d54540c	0.051837966
208	0x3be070b5	0.006849373
209	0x3d29bd20	0.04144013
210	0xbc87cf22	-0.01657826
211	0x3c6fd7e1	0.014638872
212	0xbd0b81cc	-0.03405933
213	0x3d3c832f	0.046023544
214	0x3cbe2bad	0.023214186
215	0xbd046d13	-0.032330584
216	0xbc99cf63	-0.018775648
217	0x3811bd16	3.4746794e-05
218	0xbc9d83cf	-0.01922789
219	0xbc32689a	-0.010889197
220	0xbcaf92d5	-0.02143232
221	0x3d1d36d3	0.038382363
222	0xbd437ca5	-0.047726292
223	0xbc74d5b8	-0.014943533
224	0xbd0d8823	-0.03455366
225	0xbcd1c164	-0.025604911
226	0xbd2ac4b8	-0.041691512
227	0xbbc59517	-0.006029736
228	0xbc92710d	-0.017876172
229	0x3d35ee5a	0.044416763
230	0xbc5125fe	-0.012765406
231	0x3c99eff6	0.01879118
232	0xbd1424a1	-0.036167745
233	0xbcf215de	-0.029551443
234	0x3d403539	0.046925757
235	0x3d4fffd2	0.05078108
236	0x3c8bd71a	0.017070342
237	0xbcb6facc	-0.022336386
238	0xbcad27ff	-0.021137236
239	0xbcd62789	-0.026141899
240	0x3d3bfe2c	0.045896694
241	0xbb996aa5	-0.0046819025
242	0x3b227798	0.0024790522
243	0xbbd64ad1	-0.0065396805
244	0x3d1b1a7f	0.037867066
245	0xbbe91f56	-0.0071143312
246	0x3d08965e	0.033346526
247	0x3d884326	0.066534325
248	0xbd3125b4	-0.043248847
249	0x3d21b9f9	0.039483998
250	0xbcdbf8b3	-0.026851987
251	0x3cf31342	0.029672269
252	0xbbf67b5d	-0.0075220303
253	0x3cb5acc6	0.022177111
254	0xbcba3682	-0.02273107
255	0x3d439d68	0.047757536

gcn.ln1.weight f4 [256]
0	0x3f6e40ce	0.93067634
1	0x3f6e32ce	0.9304627
2	0x3f4aa846	0.79163015
3	0x3f6a26c6	0.91465414
4	0x3eec8805	0.46197525
5	0x3f4e570e	0.80601585
6	0x3f4c69f6	0.79849184
7	0x3f714aee	0.9425496
8	0x3f34a9d8	0.7057166
9	0x3f4f055b	0.80867547
10	0x3f684db4	0.90743566
11	0x3f496dd7	0.7868323
12	0x3f60742f	0.8767728
13	0x3f5199a1	0.81875044
14	0x3f3ffc5e	0.74994457
15	0x3f6160c7	0.88038296
16	0x3f406cbd	0.7516592
17	0x3f76bfd3	0.9638645
18	0x3f7158f2	0.94276345
19	0x3f5d8f4e	0.8654679
20	0x3f4d5e1c	0.80221725
21	0x3f412c0b	0.7545783
22	0x3f76a14d	0.96339875
23	0x3f56d6a1	0.8392125
24	0x3f452662	0.7701169
25	0x3f5e0dda	0.86739886
26	0x3f5eb7c5	0.8699916
27	0x3f5eed22	0.87080586
28	0x3f5655be	0.8372458
29	0x3f684ebc	0.9074514
30	0x3f6ea321	0.93217665
31	0x3f6633af	0.8992261
32	0x3f46e290	0.77689457
33	0x3f817fec	1.0117164
34	0x3f386665	0.7203124
35	0x3f4dc02f	0.80371374
36	0x3f719aa7	0.94376606
37	0x3f75c165	0.9599822
38	0x3f6cf822	0.9256612
39	0x3f6d02b5	0.92582256
40	0x3f6961b3	0.911647
41	0x3f754cdc	0.95820403
42	0x3f4a1a65	0.78946525
43	0x3f640a62	0.8907834
44	0x3f54f5a8	0.8318734
45	0x3f488320	0.7832508
46	0x3f4539a2	0.77041066
47	0x3f638e6f	0.8888921
48	0x3f73aac8	0.95182467
49	0x3f53026e	0.8242558
50	0x3f53b829	0.8270288
51	0x3f6b7f94	0.91991544
52	0x3f5d9d49	0.86568123
53	0x3f13e7da	0.5777565
54	0x3f5212ee	0.82060134
55	0x3f4c2547	0.7974438
56	0x3f657d50	0.89644337
57	0x3f1ec957	0.6202597
58	0x3f4923e7	0.7857041
59	0x3f115bb7	0.5678057
60	0x3f6f13a3	0.9338934
61	0x3f63b27f	0.8894424
62	0x3f5a0f7f	0.85179895
63	0x3f706906	0.93910253
64	0x3f27813f	0.6543159
65	0x3f6a9fc4	0.91650033
66	0x3edbe0e0	0.42945004
67	0x3f480999	0.78139645
68	0x3f4b43aa	0.7940012
69	0x3f652184	0.89504266
70	0x3f60b617	0.8777785
71	0x3f41d01d	0.7570818
72	0x3f399af6	0.72502077
73	0x3f6453e4	0.89190507
74	0x3f0d9e6b	0.5531985
75	0x3f5c773d	0.86119443
76	0x3f4211c1	0.7580834
77	0x3f719250	0.9436388
78	0x3f127e2e	0.57223785
79	0x3f73f1e5	0.95290977
80	0x3f4989de	0.78725994
81	0x3f21ca93	0.6319973
82	0x3f5bac4d	0.85809785
83	0x3f72de5f	0.9487056
84	0x3f5bdf63	0.85887736
85	0x3f402165	0.75050956
86	0x3f6d508a	0.9270102
87	0x3f77fce6	0.9687027
88	0x3f162135	0.5864442
89	0x3f677721	0.9041615
90	0x3f65472b	0.8956172
91	0x3f76ac10	0.96356297
92	0x3f5e5b75	0.868583
93	0x3f2fc91b	0.6866624
94	0x3f6ce3be	0.92535007
95	0x3f52585c	0.82166076
96	0x3f5cb3a8	0.86211634
97	0x3f62baf8	0.8856654
98	0x3f6d6ae4	0.9274123
99	0x3f5784fb	0.8418729
100	0x3f3e16b0	0.7425337
101	0x3f536287	0.82572216
102	0x3f5e117f	0.86745447
103	0x3f396196	0.7241453
104	0x3f66c9ab	0.9015147
105	0x3f6612fa	0.89872706
106	0x3f523b26	0.82121503
107	0x3f531baf	0.82464117
108	0x3f67e770	0.9058752
109	0x3f4c0ecf	0.79710096
110	0x3f06b450	0.52618885
111	0x3ee0822c	0.43849313
112	0x3f4ee472	0.8081733
113	0x3f64fac5	0.89445144
114	0x3f675cb2	0.90375817
115	0x3f32e057	0.69873565
116	0x3f5a27f5	0.8521722
117	0x3f589ba9	0.8461252
118	0x3f6cb61b	0.9246537
119	0x3f51e30a	0.8198706
120	0x3f6c70c8	0.9235959
121	0x3f504bb1	0.81365496
122	0x3f523d6b	0.82124966
123	0x3f5407e6	0.8282455
124	0x3f5b5760	0.856802
125	0x3f4fafd7	0.81127685
126	0x3f35e271	0.7104865
127	0x3f694ba8	0.9113107
128	0x3f534d0a	0.8253943
129	0x3f7171f2	0.9431449
130	0x3f6f39e4	0.9344771
131	0x3f757c85	0.95893127
132	0x3f43478a	0.76281035
133	0x3f6e35e2	0.9305097
134	0x3f78b450	0.97150135
135	0x3f3ce6bd	0.7378958
136	0x3f53e353	0.82768744
137	0x3f614bdd	0.88006383
138	0x3f327066	0.69702756
139	0x3f4957b5	0.78649455
140	0x3f33f308	0.7029271
141	0x3f2aa779	0.66661793
142	0x3f4b900a	0.7951666
143	0x3f77d7ce	0.96813667
144	0x3f6a98ce	0.9163941
145	0x3f3624f6	0.7115015
146	0x3f617787	0.8807301
147	0x3f3c45ec	0.7354419
148	0x3f6f5d41	0.9350167
149	0x3f424b50	0.7589617
150	0x3f3b2bf1	0.73113924
151	0x3f2d319b	0.67653817
152	0x3f6d7d5c	0.9276941
153	0x3f55183e	0.83240116
154	0x3f35f7ca	0.7108122
155	0x3f4ce5d0	0.80038166
156	0x3f6f4cd0	0.9347658
157	0x3f6820c8	0.9067502
158	0x3f49e408	0.78863573
159	0x3f586a2a	0.84536994
160	0x3f66def3	0.90183944
161	0x3f21478e	0.6299981
162	0x3f769a5f	0.963293
163	0x3f61e9ea	0.8824755
164	0x3f5c2279	0.859901
165	0x3f61c5b0	0.8819227
166	0x3f635a89	0.8881002
167	0x3f78ed2f	0.97236913
168	0x3f334b6c	0.7003696
169	0x3f6c7483	0.9236528
170	0x3f174f35	0.59105235
171	0x3f146040	0.57959366
172	0x3f6cce38	0.92502165
173	0x3f602530	0.87556744
174	0x3f72b6bc	0.9481008
175	0x3f616006	0.88037145
176	0x3f7684d9	0.9629646
177	0x3ec0359b	0.37540898
178	0x3f3ca9b6	0.7369646
179	0x3f3ae413	0.73004264
180	0x3f209a1d	0.6273516
181	0x3f4bca95	0.7960599
182	0x3f7327f8	0.9498286
183	0x3f546dce	0.8298005
184	0x3f601e49	0.8754621
185	0x3f6abc9a	0.91694033
186	0x3f73501a	0.950441
187	0x3f550bb2	0.8322097
188	0x3f5f2e8f	0.8718042
189	0x3f5a70ad	0.8532818
190	0x3f6e15ae	0.9300183
191	0x3f06220c	0.523957
192	0x3f651710	0.89488316
193	0x3f1b8895	0.6075528
194	0x3f527207	0.8220524
195	0x3f74b260	0.9558468
196	0x3f79b39c	0.9753969
197	0x3f512296	0.816934
198	0x3f56f65e	0.83969676
199	0x3f73db17	0.9525618
200	0x3f59c227	0.8506188
201	0x3f4ab489	0.79181725
202	0x3f5cfd90	0.86324406
203	0x3f3e78db	0.7440316
204	0x3f62f5f6	0.88656557
205	0x3f49f559	0.78889996
206	0x3f5834aa	0.8445536
207	0x3f788a34	0.9708588
208	0x3f7430cb	0.9538695
209	0x3f60051a	0.87507784
210	0x3f58d048	0.8469281
211	0x3f68e827	0.90979236
212	0x3f5d53d7	0.86456054
213	0x3f56aebd	0.8386038
214	0x3f582e3d	0.84445554
215	0x3f5ba6a2	0.85801136
216	0x3f591f68	0.8481355
217	0x3edf41d2	0.43604904
218	0x3f55a07a	0.8344799
219	0x3f2d474f	0.67686933
220	0x3f503fb7	0.8134722
221	0x3f6159e2	0.88027775
222	0x3f3bf0ef	0.7341451
223	0x3f2d9c9a	0.6781708
224	0x3f58e7d5	0.8472875
225	0x3f421180	0.7580795
226	0x3f3c6590	0.7359247
227	0x3f76650e	0.9624795
228	0x3f5caa1a	0.86197054
229	0x3f723b3d	0.9462164
230	0x3f5e9e52	0.8696033
231	0x3f73af5c	0.9518945
232	0x3f40512e	0.7512387
233	0x3f3d583b	0.73962754
234	0x3f75e5e8	0.96053934
235	0x3f757e8c	0.9589622
236	0x3f3c9bc8	0.73675203
237	0x3f3cca6b	0.73746365
238	0x3f205a2f	0.6263761
239	0x3f276724	0.65391755
240	0x3f6d3c7b	0.9267041
241	0x3f658211	0.8965159
242	0x3f3d1a77	0.7386851
243	0x3f43c762	0.7647611
244	0x3f65eb59	0.8981224
245	0x3f270d81	0.6525498
246	0x3f76928e	0.96317375
247	0x3f6c519b	0.9231202
248	0x3f63dcdf	0.890089
249	0x3f7a9ab9	0.9789234
250	0x3f5de0bc	0.8667104
251	0x3f6dbd6d	0.92867166
252	0x3f6d110e	0.9260415
253	0x3f5846cf	0.84483045
254	0x3f63040d	0.88678056
255	0x3f52844b	0.82233113

gcn.ln1.bias f4 [256]
0	0xbbcb0a79	-0.006196317
1	0xbb6453c2	-0.0034839963
2	0xbb3d205f	-0.0028858406
3	0xbcb41c91	-0.021986278
4	0x3b8c4c54	0.00428156
5	0xbbcc6cea	-0.0062385695
6	0xbbfc9360	-0.007707998
7	0xbc4b1a94	-0.012396473
8	0xbcc9f132	-0.024651144
9	0xbbfe517e	-0.0077611795
10	0xbc99a890	-0.018757135
11	0xbd11477c	-0.035468563
12	0xbb9560a7	-0.004558641
13	0xbbcd0cf3	-0.006257647
14	0xbcadff34	-0.021239854
15	0xbcef3f64	-0.029205032
16	0xbc797672	-0.0152259935
17	0x3bea35d1	0.0071475287
18	0xbc609501	-0.0137074
19	0x3b0cb483	0.0021469898
20	0xbca51627	-0.020152165
21	0xbc9b77d7	-0.018978043
22	0xbba3fe3e	-0.0050046733
23	0xbc805a8f	-0.015668182
24	0xbd2037eb	-0.039115828
25	0xbb67ac09	-0.0035350344
26	0xbb8e50e0	-0.004343137
27	0xbd272b5c	-0.040812835
28	0xbc494ccb	-0.012286375
29	0x3878a324	5.9279744e-05
30	0xbb72c0fa	-0.0037041293
31	0xbccbd91c	-0.0248838
32	0xbc934996	-0.017979424
33	0x3c4b2fbe	0.012401519
34	0xbc6270ef	-0.013820871
35	0xbd2b08eb	-0.04175655
36	0x3a526f6c	0.00080274674
37	0xbbe1641a	-0.006878388
38	0xbc8151c3	-0.015786057
39	0xbb472d46	-0.0030391975
40	0xbcd54fc9	-0.026039021
41	0xbc947a7b	-0.01812481
42	0xbccfe2ec	-0.02537676
43	0xbc1c91f1	-0.0095562795
44	0x3cdd097a	0.026982058
45	0x3a03bae5	0.0005025103
46	0x3c816db5	0.015799383
47	0xbbf6ad96	-0.0075280173
48	0x3a4ad753	0.0007737774
49	0xbd10ac45	-0.03532054
50	0xbbb5c2cf	-0.0055469046
51	0xbb67beef	-0.0035361608
52	0xbc7410d0	-0.014896587
53	0xbc77ecf9	-0.015132182
54	0xbcdbdbaa	-0.026838142
55	0xbc64a0bb	-0.013954337
56	0xbcb97d4b	-0.022642752
57	0xbcc99dd6	-0.024611395
58	0xbc2d60d5	-0.010582169
59	0xbc0545f8	-0.008134358
60	0xbb7c4ac6	-0.0038496717
61	0x3c5e6416	0.013573667
62	0xbb0a111e	-0.0021067332
63	0xbaca38f5	-0.0015428351
64	0xbcae7212	-0.021294627
65	0xbb882913	-0.004155287
66	0xbc92dd23	-0.017927712
67	0x3bfe2a02	0.0077564726
68	0xbd55680e	-0.052101187
69	0xbbb82029	-0.005619068
70	0xbcd8f41e	-0.026483592
71	0xbd0daf8d	-0.034591246
72	0xbcee84b5	-0.029116014
73	0xbcd9277d	-0.026508087
74	0xbc1f2b47	-0.009714908
75	0xbcc53c05	-0.024076471
76	0xbcec614d	-0.02885499
77	0xbc1b26f4	-0.009469736
78	0xbc6dd108	-0.014515169
79	0xbc22f1cd	-0.009945345
80	0xbc72b1dc	-0.014812913
81	0x39f12c32	0.0004600003
82	0x3c588ba5	0.013216888
83	0x3c21d0a4	0.009876404
84	0xbc8461fe	-0.016160008
85	0xbc212a70	-0.009836778
86	0xbc750b2e	-0.014956279
87	0xbb9630cf	-0.004583455
88	0xbc1fb3f5	-0.009747495
89	0x3c2f339e	0.010693459
90	0xba964cac	-0.0011466942
91	0xbc2df882	-0.010618331
92	0xbc2880bc	-0.010284599
93	0xbd33aa86	-0.043863796
94	0x3b1575c5	0.0022805792
95	0xbc24b69a	-0.010053301
96	0xbb68f597	-0.0035546774
97	0xbbf9b98e	-0.007620997
98	0xbc00942e	-0.007847829
99	0xbc94576b	-0.01810809
100	0xbc7be495	-0.015374322
101	0xbb203dc3	-0.0024450875
102	0xbc4b1353	-0.012394744
103	0xbb1c193c	-0.0023818752
104	0xbcd62ce2	-0.026144449
105	0xbc02227c	-0.007942792
106	0xbbc1228d	-0.0058940114
107	0x3b3c7be0	0.0028760359
108	0xbacb4ced	-0.0015510597
109	0xbbb234cf	-0.005438424
110	0x3b907192	0.00440807
111	0xbca62d9e	-0.020285424
112	0xbc98b109	-0.018639104
113	0xbc9b2f5c	-0.018943481
114	0xbc6212e0	-0.013798445
115	0xbc8cc809	-0.017185228
116	0x3ba330dd	0.00498019
117	0xbcf5d74b	-0.030009886
118	0x3c4e3093	0.012584823
119	0xbccc9758	-0.02497451
120	0xbc6ac358	-0.0143288
121	0x39ff351c	0.0004867696
122	0xbbbea523	-0.0058180257
123	0xbd0d1130	-0.03444022
124	0xbcc9444f	-0.024568705
125	0xbd020808	-0.03174594
126	0xbc6dc88b	-0.014513145
127	0x3baefd58	0.0053402595
128	0xbba7791e	-0.005110874
129	0xbc54060d	-0.012940896
130	0xbc70ec04	-0.014704708
131	0xbbb19aef	-0.005420081
132	0xbcc479f9	-0.023983942
133	0x3bf24b9d	0.0073942677
134	0xbb3a46f7	-0.0028423646
135	0x3a565567	0.0008176178
136	0xbce1523b	-0.02750503
137	0xbb26094d	-0.0025335134
138	0x3c7e459e	0.015519528
139	0x3c114d1f	0.008868485
140	0x3c06e9bd	0.0082344385
141	0xbc972f35	-0.018455127
142	0xbbf7df03	-0.007564427
143	0x3bba1b41	0.0056795185
144	0xbc9a5769	-0.018840509
145	0xbd22096e	-0.039559774
146	0xbc99f84c	-0.018795155
147	0xbccad0f5	-0.024757842
148	0xbca5fb8c	-0.020261548
149	0xbc81dad3	-0.015851414
150	0xbca143cb	-0.019685647
151	0xb839962e	-4.4247303e-05
152	0xbc604419	-0.013688111
153	0xbc2f7f29	-0.01071147
154	0xbc9a1187	-0.018807186
155	0xbb872f08	-0.0041254796
156	0xb9d96032	-0.00041461136
157	0xbc13d8a8	-0.009023823
158	0xbc3327dd	-0.010934797
159	0xbc49417b	-0.012283678
160	0xbb238aa8	-0.0024954472
161	0xbb3f8ab6	-0.0029226965
162	0xbb470fd3	-0.0030374422
163	0xbc8092d5	-0.015695015
164	0xbc0a25fe	-0.00843191
165	0xbb908989	-0.0044109267
166	0xbc1e4395	-0.0096596675
167	0xb9dbea08	-0.00041945302
168	0xbd078655	-0.033087093
169	0xbcb497da	-0.022045065
170	0xbc972a9b	-0.018452933
171	0xbc50ff73	-0.012756216
172	0xbbfbb282	-0.007681192
173	0x3b15894f	0.0022817438
174	0xbbea5176	-0.007150824
175	0x3a3318d9	0.00068320107
176	0x39bd132c	0.00036063173
177	0xbd1570e1	-0.036484603
178	0xbcc981f8	-0.024598107
179	0x3c569996	0.013098141
180	0xbcb7b7ce	-0.022426512
181	0x3c02d5d6	0.007985553
182	0xbc5318a4	-0.012884293
183	0xbd15577a	-0.036460377
184	0xbc6974e5	-0.014249061
185	0xba7e87a0	-0.0009709541
186	0x3b3b8092	0.002861057
187	0xbc9f0a22	-0.019414011
188	0xbcb409bd	-0.0219773
189	0xbc5b7fa8	-0.013397135
190	0x3bd5d652	0.006525793
191	0xbc60532e	-0.013691707
192	0x39d692c9	0.00040926624
193	0xbb13183e	-0.002244487
194	0xba0a4665	-0.0005274772
195	0xbbc5d5c1	-0.0060374443
196	0x368f3d94	4.2689007e-06
197	0xbcaf0921	-0.021366658
198	0x3bffeb3d	0.007810025
199	0x3c497873	0.012296784
200	0x3af26fdd	0.0018496473
201	0x3a36a36c	0.0006967101
202	0xba8defa2	-0.0010828862
203	0xbc99ebe1	-0.018789234
204	0x3b9c238a	0.004764979
205	0xbb8dc34a	-0.004326259
206	0xbcc845b9	-0.024447309
207	0xbc0bd058	-0.00853356
208	0xba8d375b	-0.0010773944
209	0xbcf77c2b	-0.030210575
210	0x3c379b18	0.011206411
211	0xbba45f19	-0.0050162193
212	0xbc08cb73	-0.008349287
213	0xbcf1ddca	-0.029524703
214	0xbd4f2a9c	-0.050577745
215	0x3b8a0ad5	0.004212717
216	0xbbe23896	-0.006903718
217	0xbc5c8144	-0.013458554
218	0xbc298c29	-0.010348358
219	0xbc92681f	-0.017871914
220	0xbbce08e4	-0.006287681
221	0xbd14cfd1	-0.036331
222	0xbad3933d	-0.0016141903
223	0x3c6ce80e	0.014459623
224	0x3b175f20	0.002309747
225	0xbbdd3319	-0.006750476
226	0xbc1afd66	-0.009459829
227	0xbbcaee1c	-0.0061929356
228	0x3c96073c	0.018313996
229	0xbc71350e	-0.014722122
230	0xbc0de892	-0.008661406
231	0x39f50d1b	0.00046739806
232	0xba9dd42e	-0.0012041384
233	0x3c41a9a4	0.011820231
234	0xbbe3b775	-0.00694936
235	0xbc52b51b	-0.012860562
236	0xbce82aa4	-0.028340645
237	0x3b2afeb9	0.0026091768
238	0xbc253a2a	-0.010084668
239	0x3b0a670a	0.0021118545
240	0xbc171d0b	-0.009223233
241	0xbbad18bd	-0.00528249
242	0xbcbfb084	-0.023399599
243	0xbbb47b40	-0.0055078566
244	0xbd068e01	-0.03285027
245	0x3b4854d9	0.0030568151
246	0xbbf70d96	-0.0075394614
247	0xbc6122a1	-0.013741166
248	0x3ab68fb3	0.0013928324
249	0xbbb40e24	-0.0054948498
250	0x3a97c002	0.0011577609
251	0xbc1eb6f0	-0.00968717
252	0x3c2c60d2	0.010521131
253	0xbc855a4f	-0.016278414
254	0x3bb1c02b	0.0054245195
255	0xbcb0d55a	-0.021586109

gcn.gc2.weight f4 [256, 64]
0	0xbca6a7b6	-0.020343643
1	0xbdc89637	-0.09794276
2	0x3d995322	0.074865595
3	0x3df48d4d	0.119410135
4	0x3cf98cf7	0.030462725
5	0x3de12cac	0.109948486
6	0x3a50ae32	0.00079605274
7	0x3d4b1436	0.04957982
8	0x3dbf4ff5	0.093414225
9	0xbd2634b9	-0.040577624
10	0xbda8f732	-0.08250274
11	0x3d050566	0.03247585
12	0x3cc416f1	0.02393672
13	0x3c59fc59	0.013304793
14	0x3d87cf62	0.06631352
15	0xbdbeafb8	-0.093108594
16	0x3c91cbd7	0.017797394
17	0x3c5a8967	0.013338423
18	0x39f91c7c	0.00047514203
19	0xbd6ffb83	-0.05858947
20	0x3d9b3ad9	0.07579584
21	0xbc184940	-0.009294808
22	0x3b7a319f	0.003817655
23	0x3c3b022b	0.011414091
24	0x3df4b5d1	0.11948741
25	0x3dc6ac06	0.097007796
26	0x3b8d957e	0.0043207994
27	0xbcf114f9	-0.029428946
28	0x3b9c9240	0.0047781765
29	0xbe0ef5db	-0.13960974
30	0xbcd330e1	-0.025780143
31	0x3bb06f5e	0.0053843698
32	0x3da92048	0.0825811
33	0xbdebb9cd	-0.11510048
34	0xbdb50114	-0.08838096
35	0xbcff6860	-0.0311777
36	0x3d0cb8b8	0.03435585
37	0x3e085254	0.13312656
38	0xbc33e7cd	-0.010980559
39	0xbdbd8a84	-0.092549354
40	0x3da68793	0.081313275
41	0xbd759684	-0.059957996
42	0xbd180a50	-0.03711921
43	0xbd03c210	-0.032167494
44	0xbadd2f1d	-0.0016875003
45	0x3dfbf6fb	0.12302967
46	0x3d9a61db	0.07538196
47	0xbd560eb3	-0.052260112
48	0x3cc106c7	0.023562802
49	0xbdd02842	-0.101639286
50	0xbe062143	-0.13098626
51	0x3d3d5025	0.04621901
52	0x3d26cfdb	0.04072557
53	0xbd2f743b	-0.042835455
54	0xbd621399	-0.05519447
55	0xbd44bc8b	-0.04803137
56	0xbd56a51b	-0.05240355
57	0xbc9435f4	-0.018092133
58	0xbcc76e5c	-0.024344616
59	0x3d96e682	0.073681846
60	0x3d291a44	0.041284814
61	0xbd340242	-0.043947466
62	0xbd812bda	-0.06307192
63	0xbcaba824	-0.0209542
64	0xbcb5fd0f	-0.022215394
65	0x3d204bbe	0.039134733
66	0xba893d43	-0.0010470528
67	0x3cc9537a	0.024575938
68	0x3ca5ec75	0.020254353
69	0x3e11b2fc	0.14228433
70	0x3d92320e	0.071384534
71	0x3d4105f9	0.047124837
72	0xbd98658e	-0.07441245
73	0xbd76fcef	-0.06029981
74	0xbd97d2da	-0.074132636
75	0x3d82e01d	0.063904025
76	0xbdddf5d5	-0.10837904
77	0x3dc29ea1	0.09502912
78	0x3c20adfb	0.009807105
79	0xbd741a47	-0.059595373
80	0xbd46dd11	-0.04855067
81	0x3aaaefd8	0.001304145
82	0x3d7a1e38	0.061063975
83	0xbd5edc41	-0.05440927
84	0xbd694fcb	-0.056960862
85	0x3c37dda3	0.011222276
86	0xbb1cd628	-0.0023931358
87	0xbe0cbecc	-0.13744658
88	0x3dec52a8	0.11539203
89	0xbca39435	-0.019968132
90	0xbda88eaf	-0.0823034
91	0x3c684bf4	0.014178265
92	0xbd8924e6	-0.06696491
93	0x3bf92507	0.007603291
94	0xbdae88d0	-0.08522189
95	0xbdeeaa1b	-0.11653539
96	0x3d90fc9d	0.07079432
97	0xbd6c3327	-0.05766597
98	0x3dc5b1f7	0.09653085
99	0xbcbc2e0f	-0.022971181
100	0x3d9eeeb3	0.07760372
101	0x3c5f0de2	0.01361415
102	0xbb288588	-0.0025714356
103	0x3cb5b019	0.022178696
104	0xbd1db488	-0.038502246
105	0x3dccb4d1	0.099954255
106	0xbaf511d5	-0.0018697331
107	0x3d522872	0.051308103
108	0x3c8ecbc1	0.017431142
109	0xbad3326c	-0.0016113049
110	0x3cf314bf	0.029672978
111	0xbda85234	-0.08218804
112	0x3d8eb38f	0.06967842
113	0xbda60fad	-0.08108459
114	0xbe021f3c	-0.12707227
115	0xbd1abeb5	-0.03777953
116	0x3dd05481	0.10172368
117	0x3ddd27c8	0.10798603
118	0xbe081f0b	-0.13293092
119	0xbcee2cef	-0.02907416
120	0x3d1a04ad	0.037602115
121	0x3d1c0d17	0.03809842
122	0x3d6464e8	0.055760294
123	0x3d22ba00	0.039728165
124	0xba43441a	-0.00074488076
125	0xbc1656d8	-0.009175979
126	0xbc915136	-0.01773892
127	0xbd3a73f3	-0.045520734
128	0xbcd3b1fa	-0.025841702
129	0x3c75d796	0.015005013
130	0xbd6e5801	-0.058189396
131	0xbc30a4c0	-0.010781467
132	0x3b3b1c70	0.0028550886
133	0x3ddec025	0.108764924
134	0x3b923d77	0.0044628936
135	0xbba52504	-0.005039813
136	0xbddac86b	-0.10682758
137	0xbd4594ef	-0.048237737
138	0xbd7433ee	-0.059619837
139	0xbc8aa766	-0.016925525
140	0x3cb78dc4	0.022406466
141	0xbd154264	-0.03644027
142	0x3d382c2b	0.044963997
143	0x3a5eadb9	0.00084945146
144	0xbd11a35d	-0.035556186
145	0x3deeb8c8	0.11656338
146	0x3d6d59cf	0.057946976
147	0x3d64ff88	0.055907756
148	0xbd309767	-0.04311314
149	0xbdfa1255	-0.12210528
150	0x3c68648d	0.014184129
151	0xbdc5eda7	-0.09664469
152	0x3cf0fe3d	0.029418105
153	0x3da83a68	0.08214265
154	0xbc23ee08	-0.010005482
155	0xbd179b46	-0.037013315
156	0x3d419fc4	0.047271505
157	0xbcfdd927	-0.030987335
158	0x3d108445	0.035282392
159	0xbd8a188c	-0.06742963
160	0xbda96807	-0.08271795
161	0x3c4108f5	0.011781921
162	0xbdd0f5ab	-0.102031074
163	0x3cff260a	0.031146068
164	0x3d9668d7	0.07344215
165	0x3da00324	0.07813099
166	0xbd9e1d13	-0.07720389
167	0x3d92ec60	0.07173991
168	0xbdae1a13	-0.08501067
169	0x3d9fba59	0.07799215
170	0x3dd7f9e9	0.105457135
171	0x3c3fc611	0.011704938
172	0xbd8af047	-0.067841105
173	0xbd7bb92c	-0.06145589
174	0xbc61a80c	-0.013772976
175	0x3c013091	0.007885114
176	0x3c8692bd	0.016427392
177	0xbdd144b4	-0.10218182
178	0x3d64204d	0.055694867
179	0x3d22aef7	0.03971764
180	0xbd702397	-0.05862769
181	0x3d69f0dd	0.05711447
182	0xbd0dabe2	-0.03458775
183	0x3d85e11e	0.06537078
184	0xbc9f5ffd	-0.01945495
185	0xbc02e6ab	-0.007989566
186	0xbd8cd0ed	-0.06875787
187	0x3bdc3cda	0.0067211213
188	0xbd89118d	-0.06692801
189	0xbd18ba1c	-0.037286863
190	0x3bdbf41a	0.006712449
191	0x3d8f220c	0.06988916
192	0xbd61b66c	-0.05510561
193	0x3c957376	0.018243533
194	0xbb0192f1	-0.0019771422
195	0xbc8e9694	-0.017405786
196	0x3d6eec71	0.058330957
197	0x3de1db7c	0.110281914
198	0x3dc24321	0.0948546
199	0x3c8000e4	0.015625425
200	0xbd967648	-0.07346779
201	0xbda3a3bc	-0.07990214
202	0xbdbfa9d0	-0.09358561
203	0xbbfa7b1d	-0.007644071
204	0xbc963473	-0.018335557
205	0x3de24906	0.11049084
206	0x3d1785d8	0.036992878
207	0x3d36f7b0	0.044669807
208	0x3da984a5	0.08277253
209	0xbdbd9531	-0.09256972
210	0xbdcbc504	-0.09949687
211	0x3d05d7bc	0.032676443
212	0x3d2652a0	0.04060614
213	0xbd3def96	-0.046371065
214	0xbd4f6f24	-0.0506431
215	0x3ceab948	0.028652802
216	0xbd960797	-0.073256664
217	0x3daf7e95	0.085690655
218	0x3d1976ad	0.037466694
219	0x3c3e5847	0.011617727
220	0xbcc14ca2	-0.023596112
221	0xbddd03c5	-0.107917346
222	0xbd9ea948	-0.077471316
223	0x3d4ef36b	0.05052511
224	0xbda644fe	-0.08118628
225	0xbcd20cf3	-0.02564094
226	0x3dd12518	0.10212153
227	0xbdfb9473	-0.12284174
228	0xbb98e0cf	-0.004665471
229	0xbd858118	-0.06518763
230	0x3d2ce4d1	0.042210404
231	0x3d02bf94	0.031920984
232	0x3da3a21f	0.079899065
233	0xbd855080	-0.06509495
234	0xbd590063	-0.052978884
235	0x3d1aee28	0.03782478
236	0x3cb0cabc	0.021581046
237	0xbd9fbf3c	-0.07800147
238	0x3da6cbab	0.08144315
239	0x3caf7bf7	0.021421416
240	0xbc4a399f	-0.0123428395
241	0xbdc8f1be	-0.09811734
242	0x3d9fecc7	0.078088336
243	0x3c864da4	0.016394444
244	0xbd613caa	-0.054989494
245	0x3ad4beb9	0.0016231156
246	0x3ce2fee7	0.027709438
247	0x3decf864	0.11570814
248	0x3da5493d	0.0807061
249	0xbc5f835a	-0.0136421565
250	0x3cbe0dc2	0.02319992
251	0xbdefa098	-0.11700553
252	0xbccdeab3	-0.025136327
253	0x3d80bfa2	0.06286551
254	0x3db40c3a	0.087913945
255	0xbd539102	-0.051651962

gcn.gc2.bias f4 [64]
0	0xbdc4ea3c	-0.09614989
1	0x3c383727	0.011243618
2	0x3d1763c7	0.03696039
3	0x3d956e0a	0.07296379
4	0xbda00e05	-0.07815174
5	0x3d63abf4	0.05558391
6	0x3da4202f	0.08013951
7	0xbd8edc47	-0.06975608
8	0xbdf13083	-0.11776831
9	0x3c5ae106	0.013359314
10	0x3ded2385	0.115790404
11	0xbdae156a	-0.08500178
12	0xbc072a27	-0.008249796
13	0x3c413fd5	0.011795004
14	0xbde69dc3	-0.112605594
15	0xbdcb9835	-0.099411406
16	0x3d965545	0.073404826
17	0xbdc4a16c	-0.09601101
18	0xbde452cf	-0.11148607
19	0xbdc26942	-0.094927326
20	0x3c591459	0.01324948
21	0x3c28ebcd	0.010310126
22	0x3da9b2ec	0.0828608
23	0x3da47ae1	0.0803125
24	0xbdc15567	-0.09440117
25	0xbb5b8f44	-0.003350214
26	0xbdad4f3c	-0.084623784
27	0xbc19d341	-0.009388746
28	0x3db20e9d	0.086941935
29	0xbdd7c0a7	-0.105347924
30	0x3d04984f	0.032371815
31	0xbded2756	-0.11579768
32	0x3ddc4a13	0.10756316
33	0x3d16d84b	0.036827367
34	0x3db96b55	0.09053675
35	0xbd9ebaa1	-0.077504404
36	0x3d08daea	0.033411898
37	0xbb76f63a	-0.0037683384
38	0x3d88d374	0.066809565
39	0x3d8ea5c0	0.06965208
40	0xbdaa5a18	-0.08317965
41	0xbcda02e9	-0.026612716
42	0x3d81c0ad	0.06335578
43	0x3d21491e	0.03937637
44	0x3dbf389d	0.0933697
45	0xbc2816e4	-0.010259364
46	0xbcd7855f	-0.026308713
47	0x3c884182	0.016632799
48	0x3d17f7c8	0.037101537
49	0x3dd5dea2	0.104428545
50	0x3cceab32	0.025228117
51	0x3d2aefd6	0.04173263
52	0xbd24a438	-0.040195674
53	0x3c068dd2	0.008212524
54	0x3c313c2b	0.010817568
55	0xbdc8e5d2	-0.0980946
56	0xbde3b60e	-0.111187086
57	0x3c617de5	0.013762926
58	0xbb2f2302	-0.0026723747
59	0x3d35d2a0	0.04439032
60	0x3ddea5a1	0.10871435
61	0x3dbf3e42	0.093380466
62	0x3ab5f300	0.0013881624
63	0x3de3aca5	0.11116914

gcn.ln2.weight f4 [64]
0	0x3f3b4d36	0.7316469
1	0x3f504c5d	0.8136652
2	0x3f6cad7d	0.9245222
3	0x3f717906	0.9432529
4	0x3dd3c0b3	0.10339489
5	0x3f812271	1.0088636
6	0x3f37f6ba	0.7186085
7	0x3f625868	0.8841615
8	0x3f80659e	1.0031011
9	0x3f2b7bd3	0.66985816
10	0x3f83dcb5	1.030173
11	0x3f6e8ccc	0.9318359
12	0x3f586981	0.84535986
13	0x3f814f7a	1.0102379
14	0x3f7d2c34	0.98895574
15	0x3f65c0be	0.89747226
16	0x3f28496d	0.6573704
17	0x3f7f991c	0.99843
18	0x3f7b49fb	0.9815976
19	0x3f81643f	1.0108718
20	0x3f7bad0f	0.9831094
21	0x3f7e3b27	0.9930901
22	0x3f404c76	0.7511667
23	0x3f7036ab	0.93833417
24	0x3f7419a9	0.95351654
25	0x3f72dce3	0.94868296
26	0x3f54cf2f	0.8312864
27	0x3f6865fd	0.9078062
28	0x3f7116bc	0.94175315
29	0x3f7101be	0.94143283
30	0x3f593e21	0.84860426
31	0x3f7e8271	0.9941779
32	0x3f7d6f72	0.9899818
33	0x3f1dd642	0.61655056
34	0x3f6bf9ff	0.9217834
35	0x3f6f4168	0.93459177
36	0x3f1a219e	0.60207546
37	0x3f7b9be4	0.98284745
38	0x3f687b91	0.9081355
39	0x3f7f6ac0	0.9977226
40	0x3f7fb567	0.99886173
41	0x3f7e555c	0.99349
42	0x3f82c6d4	1.0216928
43	0x3f78a892	0.9713222
44	0x3e102232	0.14075544
45	0x3f6ab31d	0.91679555
46	0x3f7fee4d	0.99972993
47	0x3f80e4b4	1.0069795
48	0x3f1602e3	0.58598155
49	0x3f5bd3ab	0.85869855
50	0x3f7879c2	0.9706079
51	0x3f7bb00f	0.9831552
52	0x3f54f708	0.8318944
53	0x3f598957	0.8497519
54	0x3f844984	1.0334935
55	0x3f773a01	0.9657288
56	0x3f6e61f8	0.9311824
57	0x3f1d8cd9	0.6154304
58	0x3f508810	0.81457615
59	0x3f6d6e4e	0.92746437
60	0x3f6cc30f	0.92485136
61	0x3e905e9a	0.28197175
62	0x3f6d111c	0.9260423
63	0x3f80b3d9	1.0054885

gcn.ln2.bias f4 [64]
0	0xbcd991d9	-0.026558803
1	0x3c9d2607	0.019183172
2	0xbbdfae3d	-0.0068261907
3	0xbca0a354	-0.01960913
4	0xbc3ad9ab	-0.011404435
5	0xbb8f72fa	-0.00437772
6	0xbc82102d	-0.015876854
7	0x3cb48410	0.022035629
8	0x3c981de3	0.018568939
9	0x3b07dbfb	0.0020730484
10	0x3cec524c	0.028847836
11	0x3ccc0ce1	0.024908485
12	0x3ba4330f	0.0050109695
13	0x3cc6aac1	0.024251344
14	0x3cc82626	0.024432253
15	0x3c3cdd80	0.011527419
16	0xbc521f29	-0.012824812
17	0xbb7f68c7	-0.0038972364
18	0xbbebe870	-0.0071993396
19	0x3cc886e2	0.02447838
20	0x3ccea0bf	0.025223134
21	0x3c9340c7	0.017975224
22	0xbca01d8c	-0.019545339
23	0x3c61ca63	0.013781163
24	0xbc6fb524	-0.01463059
25	0xbbda9981	-0.006671131
26	0x3cd0a2ba	0.02546822
27	0xbc888ac0	-0.016667724
28	0xbc84d52a	-0.016214926
29	0x3c8b17de	0.016979154
30	0x3c327361	0.010891766
31	0x3caf9a57	0.0214359
32	0xbb96f0b5	-0.0046063312
33	0x3c8a7989	0.016903656
34	0x3c4d5074	0.012531389
35	0x3b793662	0.00380268
36	0xbc902d73	-0.017599797
37	0xbc6b76ae	-0.014371557
38	0x3cf11ed4	0.029433645
39	0x3cf32e7e	0.029685255
40	0xbc3a85c2	-0.011384429
41	0xbc2fddca	-0.010734031
42	0x3ce7384a	0.028225083
43	0xbb4aa393	-0.0030920252
44	0xbbef760e	-0.0073077744
45	0xbc638680	-0.013887048
46	0xbbbc9ee7	-0.0057562473
47	0x3cc4959c	0.02399712
48	0x3c3dd394	0.011586089
49	0x3cbe2533	0.023211097
50	0x3c8b7394	0.017022885
51	0xbbbf442f	-0.0058369855
52	0x3cb04247	0.021515979
53	0xbc96275b	-0.018329313
54	0x3c9dd279	0.0192654
55	0x3cb7adef	0.022421805
56	0x3caba06b	0.020950517
57	0xbc79a561	-0.015237183
58	0xbcbd1d32	-0.02308521
59	0xbc6e48f1	-0.014543758
60	0xbc1a15ea	-0.009404639
61	0x3c6a7b63	0.014311644
62	0x3c99ba19	0.018765496
63	0x3cc42d20	0.023947299

attention.fc1.weight f4 [16, 64]
0	0xbaa6a748	-0.0012714649
1	0x3d375f9b	0.04476891
2	0xbce652b1	-0.028115602
3	0x3d3bf6d3	0.045889687
4	0xbabcae9d	-0.00143953
5	0xbd3e7754	-0.04650052
6	0x3c32e417	0.010918639
7	0x3d2e2648	0.042516977
8	0xbd4a12c3	-0.0493343
9	0xbd566c68	-0.052349478
10	0xbd726159	-0.05917487
11	0xbd8edb99	-0.06975479
12	0xbd47b782	-0.04875899
13	0xbca4a735	-0.020099262
14	0xbc5ad096	-0.013355395
15	0x3bc50239	0.006012228
16	0x3ccd125b	0.025033167
17	0xbcf0d726	-0.029399466
18	0x3bbbbe51	0.0057294746
19	0x3d987cc6	0.07445674
20	0x3db7941a	0.08963795
21	0x3b8e4203	0.0043413653
22	0x3c3e9638	0.011632495
23	0x3c8e185e	0.017345604
24	0xbbb102a6	-0.005401927
25	0xbb4e905b	-0.0031519148
26	0x3c0894a5	0.008336221
27	0xbd4ef091	-0.05052239
28	0xbc5c7039	-0.01345449
29	0xbcd229d4	-0.02565471
30	0x3d16d6b9	0.03682587
31	0xbd422bcc	-0.04740505
32	0xbd4fbe2b	-0.050718468
33	0x3a0983da	0.00052457827
34	0xbd5cf33b	-0.0539429
35	0x3c51920e	0.01279117
36	0x3bee740d	0.007277018
37	0x3cab5c6d	0.020918095
38	0xbd061413	-0.032733988
39	0x3dd52d8b	0.10409077
40	0xbd4ccd13	-0.05000026
41	0xbc5630ec	-0.013073187
42	0xbc955839	-0.018230544
43	0xbd830e30	-0.063991904
44	0x39edff16	0.00045394216
45	0x3c46f1fd	0.012142655
46	0xbd452577	-0.048131432
47	0xbc104549	-0.008805581
48	0x3ccad7f7	0.024761183
49	0x3d652999	0.055947874
50	0xbc01ec87	-0.007929928
51	0xbc8393f1	-0.016061755
52	0x3c509616	0.012731096
53	0x398dbb2c	0.0002703307
54	0xbd757b8a	-0.05993227
55	0xbca070f6	-0.019585114
56	0xbc26c38c	-0.010178458
57	0xbc000a29	-0.007814922
58	0x3a57382b	0.0008209969
59	0x3d910b23	0.07082202
60	0xbb9d03e0	-0.0047917217
61	0x3c3a69c4	0.011377756
62	0xb8a319ca	-7.777249e-05
63	0x3c8c1081	0.017097713
64	0xbd99f775	-0.07517902
65	0x3ca062dc	0.01957839
66	0xbd141290	-0.036150515
67	0xbda661c6	-0.081241176
68	0xbd202f9b	-0.0391079
69	0xbb1e4ab1	-0.0024153406
70	0x3c9a0c37	0.018804653
71	0x3dd3ce51	0.10342086
72	0xbcd1dac1	-0.025617005
73	0xbd14d853	-0.036339115
74	0x3d957f32	0.07299651
75	0xbe132a72	-0.1437166
76	0xbdb9ba7a	-0.09068771
77	0xbd57d5a9	-0.052693997
78	0x3e041e7b	0.12902252
79	0x3d8fb6ea	0.0701731
80	0xbd9a77dc	-0.075423926
81	0xbd8bda2c	-0.06828722
82	0x3d79118e	0.060807757
83	0xbde3c372	-0.111212626
84	0xbd0fda50	-0.03512031
85	0x3bbe08d6	0.005799393
86	0xbddb2334	-0.10700074
87	0x3d316b77	0.043315377
88	0x3d115122	0.035477765
89	0xbda681e5	-0.08130244
90	0x3d903e55	0.07043139
91	0x3d41648c	0.04721503
92	0x3dadad39	0.08480305
93	0xbd38f552	-0.04515583
94	0x3da59980	0.080859184
95	0x3bf516d4	0.007479528
96	0xbb41d36a	-0.0029575475
97	0x3d14784f	0.036247548
98	0xbdbefae0	-0.09325194
99	0x3d392138	0.045197695
100	0x3d1e7ba9	0.03869215
101	0x3d8ad180	0.0677824
102	0xbd5a0452	-0.053226776
103	0xbd67ceaa	-0.056593575
104	0x3d8e3a07	0.069446616
105	0x3d6fb6ec	0.058524057
106	0xbdc5478e	-0.096327886
107	0x3dc60909	0.09669692
108	0xbc5ef8b0	-0.013609096
109	0xbc126ef0	-0.008937582
110	0xbdaec0b6	-0.085328504
111	0xbd230645	-0.0398009
112	0x3d8ec2c5	0.06970743
113	0xbd919daf	-0.07110154
114	0x3d2064f5	0.03915878
115	0x3cecb059	0.028892683
116	0xbbcef97d	-0.0063163624
117	0x3c981a62	0.018567268
118	0xbe0c2e10	-0.13689446
119	0xbdb6657f	-0.089060776
120	0x39d1f1c0	0.00040043704
121	0x3d979f97	0.07403486
122	0x3d927aca	0.071523264
123	0x3ca227fc	0.019794457
124	0x3d079f9b	0.033111196
125	0x3b5facc6	0.003413008
126	0xbbf1ab17	-0.007375132
127	0xbd856b34	-0.06514588
128	0xbd6a45f7	-0.05719563
129	0x3d23b17f	0.039964195
130	0x3cd4717c	0.02593302
131	0xbd4945e5	-0.049138922
132	0xbcb3f56e	-0.021967616
133	0xbd9be243	-0.076115154
134	0xbd7dc486	-0.061954997
135	0x3d06a8fe	0.032876007
136	0x3d98920e	0.07449733
137	0xbdd4b183	-0.1038542
138	0x3b619ef3	0.0034427017
139	0xbe0d666c	-0.13808602
140	0xbccf1be0	-0.025281847
141	0xbc6ab3cc	-0.0143250935
142	0x3c1c18e3	0.009527418
143	0xbc0e5f64	-0.008689735
144	0xbd220ed1	-0.03956491
145	0xbc840693	-0.016116416
146	0x3c8246ae	0.015902843
147	0xbdd47e6f	-0.10375678
148	0x3d16c14e	0.036805443
149	0x3c708f84	0.014682654
150	0xbd8b329b	-0.067967616
151	0xbd193250	-0.037401497
152	0xbc24136e	-0.010014398
153	0xb7df5091	-2.6621188e-05
154	0xbd287460	-0.04112661
155	0xbc971c02	-0.018445972
156	0x3d99d503	0.07511332
157	0xba61827d	-0.0008602513
158	0x3d1bd9e9	0.038049612
159	0xbda7e97f	-0.08198833
160	0xbcd6959b	-0.026194384
161	0xbcbe7ef8	-0.023253903
162	0x3c5a9780	0.0133417845
163	0xbd818026	-0.063232705
164	0x3c2aff21	0.010436804
165	0x3bfd8bc2	0.0077376077
166	0xbdd4b2aa	-0.1038564
167	0xbd0f1f35	-0.03494187
168	0xbdd143fb	-0.10218044
169	0x3db91e44	0.09038976
170	0x3dd1fdbd	0.10253475
171	0x3d0b619c	0.034028634
172	0x3b5ff0ca	0.003417062
173	0x3c9fd2e1	0.019509735
174	0x3d294f06	0.04133513
175	0x3de43cc5	0.11144403
176	0xbae81cda	-0.0017708794
177	0x3dbaed89	0.091273375
178	0x3d245f80	0.04013014
179	0x3c318a98	0.010836266
180	0xbc5dbd01	-0.013533832
181	0x3c1b9a8b	0.009497295
182	0xbc9e4a4b	-0.019322535
183	0xbd69896e	-0.05701583
184	0xbd43fb8d	-0.04784732
185	0xbd73974b	-0.059470456
186	0x3db7b7c1	0.08970595
187	0x3d40b7c9	0.04705027
188	0xbd07178a	-0.032981433
189	0x3c93e5c0	0.01805389
190	0x3d8924d6	0.06696479
191	0xbb6af343	-0.0035850562
192	0x3d1b7d18	0.037961096
193	0xbaef61ec	-0.0018263436
194	0x3cd7b6df	0.026332317
195	0xbd895966	-0.067065045
196	0x3be2960d	0.00691486
197	0xbd8e42ab	-0.0694631
198	0x3d89b355	0.06723658
199	0xbc49498d	-0.012285602
200	0xbd80afd9	-0.0628354
201	0x39bc170a	0.0003587532
202	0x3bf6e0a0	0.0075341016
203	0x3ba6bf7a	0.0050887438
204	0x3dd067dc	0.101760596
205	0xbce4b055	-0.027916113
206	0xbdcafc37	-0.099113874
207	0xbb42c3c2	-0.0029718732
208	0x3b8ce89a	0.004300189
209	0x3d02ea26	0.031961583
210	0xbde338d0	-0.110948205
211	0x3de963f7	0.1139602
212	0x3d37b529	0.044850502
213	0xbd8af279	-0.06784529
214	0x3db15a6d	0.086598255
215	0x3cd1f82b	0.025631031
216	0x3d9fcea0	0.078030825
217	0xbc898ea2	-0.016791645
218	0xbd23ba34	-0.0399725
219	0xbd1b1bd0	-0.03786832
220	0x3d342b37	0.043986525
221	0x3dbadb4b	0.09123858
222	0xbbbb5239	-0.005716589
223	0x3d794c5c	0.060863838
224	0xbd548e1b	-0.051893335
225	0x3bf8ffb2	0.0075988406
226	0x3d53befc	0.05169581
227	0xbda49fdf	-0.080383055
228	0xbd0094d2	-0.031391926
229	0x3bf42c63	0.0074515804
230	0x3dfd38b1	0.12364329
231	0x3d8ac349	0.06775529
232	0x3d08c5aa	0.033391632
233	0xbd20ab28	-0.039225727
234	0xbd19e3fd	-0.037570942
235	0x39fbee9f	0.00048052237
236	0x3bc324d6	0.005955319
237	0xbd347cc9	-0.044064317
238	0xbca4c71f	-0.02011448
239	0xbc198685	-0.009370451
240	0xbd0adcd2	-0.033901997
241	0xbcd81ca5	-0.026380846
242	0x3d87f10d	0.06637774
243	0x3d236366	0.039889716
244	0x3ceaf44c	0.028680943
245	0xbcfcf0ea	-0.030876596
246	0x3dd2da5e	0.102955565
247	0x3dac9352	0.084265366
248	0xbd0fa5ef	-0.035070356
249	0xbd92985b	-0.07157966
250	0x3c69142e	0.014226003
251	0x3d9fdbe0	0.0780561
252	0xbafc666b	-0.0019256597
253	0x3b735e0d	0.0037134916
254	0xbd00411c	-0.031312093
255	0x3cb303f9	0.02185248

attention.fc1.bias f4 [16]
0	0x3b64f2ed	0.0034934834
1	0xbd8557cf	-0.06510889
2	0xbd0cb3c3	-0.03435112
3	0x3cd224b5	0.025652269
4	0x3c909692	0.017649923
5	0x3ce29f1f	0.027663765
6	0xbda20247	-0.079105906
7	0xbc919660	-0.0177719
8	0xbce6a0aa	-0.028152782
9	0x3d0560d2	0.03256304
10	0x3b9a4712	0.0047081793
11	0xbdbef823	-0.09324672
12	0xbdb314d6	-0.087442085
13	0x3cc09251	0.02350727
14	0xbc9e6a79	-0.01933788
15	0x3dbefbf3	0.09325399

attention.fc2.weight f4 [4, 16]
0	0xbde4f842	-0.11180164
1	0x3e3aaf79	0.18231
2	0xbe43fac3	-0.19138627
3	0xbe1a9253	-0.15094881
4	0x3e63bf31	0.22240902
5	0x3e9b5699	0.30339506
6	0xbe431abd	-0.19053169
7	0xbe0f9606	-0.14022073
8	0xbd95791a	-0.07298489
9	0x3c0a89d4	0.008455712
10	0x3e3ae165	0.18250044
11	0xbdda57fc	-0.10661313
12	0xbd42e5e6	-0.04758253
13	0xbeb90855	-0.3613917
14	0x3e1d0e6e	0.15337536
15	0x3e413ec0	0.18871593
16	0xbdb6350f	-0.08896839
17	0x3e094edc	0.13408989
18	0xbda18840	-0.07887316
19	0xbe054cfe	-0.13017651
20	0x3d428226	0.0474874
21	0xbd77df21	-0.060515527
22	0x3d74bc58	0.05974993
23	0xbdd0d839	-0.10197491
24	0xbe904cb7	-0.2818353
25	0x3dc969a2	0.09834601
26	0x3d252848	0.04032162
27	0xbe647920	-0.2231183
28	0xbcdc68ff	-0.026905535
29	0xbe1d4e0d	-0.15361805
30	0xbe319b1b	-0.17344324
31	0x3e28f644	0.16500193
32	0x3d88a323	0.06671741
33	0x3d2751b7	0.040849414
34	0x3e7517ef	0.23934911
35	0x3d1c2234	0.038118556
36	0x3d2a378f	0.04155689
37	0x3e04f060	0.12982321
38	0xbe07c513	-0.13258772
39	0xbe25f94b	-0.16208379
40	0xbd4c6048	-0.04989651
41	0x3c3a0d62	0.01135573
42	0xbcce0c4a	-0.025152344
43	0xbda31517	-0.07963007
44	0x3e73ace6	0.23796424
45	0xbe7d7070	-0.24749923
46	0xbd99adf5	-0.07503883
47	0x3e6fc928	0.23416579
48	0x3e4b7305	0.19868095
49	0xbd34d0d3	-0.044144463
50	0x3e435019	0.19073524
51	0x3df02c4f	0.11727201
52	0xbd8e1c0c	-0.06938943
53	0xbd33fb22	-0.04394067
54	0xbe145db0	-0.14488864
55	0x3dee20b0	0.116273284
56	0xbe18882e	-0.14895698
57	0x3e4c632c	0.19959706
58	0xbc0db4fc	-0.008649107
59	0xbe11d548	-0.14241517
60	0x3e313c62	0.1730819
61	0xbe8d9217	-0.2765052
62	0xbe0fcf30	-0.1404388
63	0x3e800069	0.25000313

attention.fc2.bias f4 [4]
0	0x36654a07	3.4166749e-06
1	0xb796e459	-1.7987726e-05
2	0xb5d5e5d3	-1.5936624e-06
3	0xb6469a90	-2.9594266e-06

fc_final.weight f4 [1, 64]
0	0xbd624a55	-0.05524667
1	0x3d9b22a8	0.075749695
2	0xbda6aebb	-0.08138796
3	0xbdab20de	-0.08355878
4	0x3b591563	0.003312432
5	0xbe1246a6	-0.14284763
6	0xbd4e5f82	-0.050384052
7	0x3de0f13a	0.1098351
8	0x3df7aea1	0.12093855
9	0x3b15021a	0.0022736848
10	0x3e2300bd	0.1591825
11	0x3cbe662d	0.02324208
12	0x3b738d76	0.0037163175
13	0x3df576ba	0.11985536
14	0x3de2a4a3	0.11066558
15	0x3dee71e1	0.116428144
16	0xbbf16e88	-0.0073679127
17	0xbe005847	-0.12533675
18	0xbde2e04e	-0.11077939
19	0x3e10210f	0.14075111
20	0x3dc23c87	0.09484201
21	0x3e02668a	0.12734428
22	0xbd562d26	-0.05228915
23	0x3dcddf96	0.10052411
24	0xbdc90356	-0.098150894
25	0xbdc841b7	-0.09778159
26	0x3d8a3a88	0.06749445
27	0xbd82e718	-0.06391734
28	0xbd934fce	-0.07192956
29	0x3dbc4c1b	0.091942035
30	0x3dd09fbc	0.10186717
31	0x3de7f640	0.11326265
32	0xbdfc2774	-0.123122126
33	0x3d32ab55	0.043620426
34	0x3bece5df	0.007229551
35	0xbc339c45	-0.0109625505
36	0x3a42e278	0.0007434259
37	0xbdb3ab6f	-0.08772933
38	0x3d2f3440	0.04277444
39	0x3e042877	0.12906061
40	0xbe095ed7	-0.13415085
41	0xbdef3287	-0.11679559
42	0x3e1a6eae	0.15081283
43	0xbd1a7188	-0.037705928
44	0xbc45ab98	-0.012064837
45	0xbdac30b7	-0.08407729
46	0xbe14c407	-0.14527903
47	0x3e0b6eb6	0.13616452
48	0x3c0e36bc	0.008680042
49	0x3da506f9	0.080579706
50	0x3dd31ede	0.10308622
51	0xbdf90dfa	-0.12160869
52	0x3d9c5675	0.07633678
53	0xbdb03350	-0.08603537
54	0x3e1cd338	0.15314949
55	0x3d841a76	0.064503595
56	0x3d868b94	0.06569591
57	0xbc8b883e	-0.017032739
58	0xbd1cf01f	-0.038314935
59	0xbd95476e	-0.07289015
60	0xbd7854d8	-0.06062779
61	0x3cb9f38b	0.022699138
62	0x3dc35432	0.09537543
63	0x3e1a02d5	0.15040143
